…
2025-04-20 16:11:36,366 [RANK 0] Final data shape: (7670, 135, 180, 1)
2025-04-20 16:11:36,367 [RANK 0] Memory usage: 1.49 GB
2025-04-20 16:11:36,550 [RANK 0] Data validation passed - no NaN values detected
2025-04-20 16:11:36,554 [RANK 0] Starting training from scratch
2025-04-20 16:11:36,675 [RANK 0] Starting single-GPU/CPU training
2025-04-20 16:11:36,675 [RANK 0] Initializing training process on rank 0
2025-04-20 16:11:36,678 [RANK 0] Initializing autoencoder with input_dim=45, latent_dim=9
2025-04-20 16:11:36,734 [RANK 0] Model architecture:
WeatherAutoencoder(
  (encoder): Sequential(
    (0): Linear(in_features=45, out_features=256, bias=True)
    (1): ReLU()
    (2): Linear(in_features=256, out_features=128, bias=True)
    (3): ReLU()
    (4): Linear(in_features=128, out_features=64, bias=True)
    (5): ReLU()
    (6): Linear(in_features=64, out_features=9, bias=True)
  )
  (decoder): Sequential(
    (0): Linear(in_features=9, out_features=64, bias=True)
    (1): ReLU()
    (2): Linear(in_features=64, out_features=128, bias=True)
    (3): ReLU()
    (4): Linear(in_features=128, out_features=256, bias=True)
    (5): ReLU()
    (6): Linear(in_features=256, out_features=45, bias=True)
  )
)
2025-04-20 16:11:36,930 [RANK 0] Model created on device cuda:0
2025-04-20 16:11:36,931 [RANK 0] Number of parameters: 107062
2025-04-20 16:11:36,931 [RANK 0] Initializing dataset with patch_size=3, time_steps=5
2025-04-20 16:11:36,931 [RANK 0] Original data shape: (7670, 135, 180, 1)
2025-04-20 16:11:37,415 [RANK 0] Padded data shape: (7674, 137, 182, 1)
…
2025-04-20 16:16:05,546 [RANK 0] Final data shape: (7670, 135, 180, 9)
2025-04-20 16:16:05,547 [RANK 0] Memory usage: 13.42 GB
2025-04-20 16:16:07,292 [RANK 0] Data validation passed - no NaN values detected
2025-04-20 16:16:07,324 [RANK 0] Starting training from scratch
2025-04-20 16:16:07,448 [RANK 0] Starting single-GPU/CPU training
2025-04-20 16:16:07,448 [RANK 0] Initializing training process on rank 0
2025-04-20 16:16:07,757 [RANK 0] Initializing autoencoder with input_dim=405, latent_dim=9
2025-04-20 16:16:08,014 [RANK 0] Model architecture:
WeatherAutoencoder(
  (encoder): Sequential(
    (0): Linear(in_features=405, out_features=256, bias=True)
    (1): ReLU()
    (2): Linear(in_features=256, out_features=128, bias=True)
    (3): ReLU()
    (4): Linear(in_features=128, out_features=64, bias=True)
    (5): ReLU()
    (6): Linear(in_features=64, out_features=9, bias=True)
  )
  (decoder): Sequential(
    (0): Linear(in_features=9, out_features=64, bias=True)
    (1): ReLU()
    (2): Linear(in_features=64, out_features=128, bias=True)
    (3): ReLU()
    (4): Linear(in_features=128, out_features=256, bias=True)
    (5): ReLU()
    (6): Linear(in_features=256, out_features=405, bias=True)
  )
)
2025-04-20 16:16:08,236 [RANK 0] Model created on device cuda:0
2025-04-20 16:16:08,237 [RANK 0] Number of parameters: 291742
2025-04-20 16:16:08,237 [RANK 0] Initializing dataset with patch_size=3, time_steps=5
2025-04-20 16:16:08,237 [RANK 0] Original data shape: (7670, 135, 180, 9)
2025-04-20 16:16:10,952 [RANK 0] Padded data shape: (7674, 137, 182, 9)
…
2025-04-20 19:57:14,081 [RANK 0] Final data shape: (7670, 135, 180, 6)
2025-04-20 19:57:14,081 [RANK 0] Memory usage: 8.95 GB
2025-04-20 19:57:15,168 [RANK 0] Data validation passed - no NaN values detected
2025-04-20 19:57:15,192 [RANK 0] Starting training from scratch
2025-04-20 19:57:15,308 [RANK 0] Starting single-GPU/CPU training
2025-04-20 19:57:15,309 [RANK 0] Initializing training process on rank 0
2025-04-20 19:57:15,311 [RANK 0] Initializing autoencoder with input_dim=270, latent_dim=9
2025-04-20 19:57:15,326 [RANK 0] Model architecture:
WeatherAutoencoder(
  (encoder): Sequential(
    (0): Linear(in_features=270, out_features=256, bias=True)
    (1): ReLU()
    (2): Linear(in_features=256, out_features=128, bias=True)
    (3): ReLU()
    (4): Linear(in_features=128, out_features=64, bias=True)
    (5): ReLU()
    (6): Linear(in_features=64, out_features=9, bias=True)
  )
  (decoder): Sequential(
    (0): Linear(in_features=9, out_features=64, bias=True)
    (1): ReLU()
    (2): Linear(in_features=64, out_features=128, bias=True)
    (3): ReLU()
    (4): Linear(in_features=128, out_features=256, bias=True)
    (5): ReLU()
    (6): Linear(in_features=256, out_features=270, bias=True)
  )
)
2025-04-20 19:57:15,515 [RANK 0] Model created on device cuda:0
2025-04-20 19:57:15,516 [RANK 0] Number of parameters: 222487
2025-04-20 19:57:15,516 [RANK 0] Initializing dataset with patch_size=3, time_steps=5
2025-04-20 19:57:15,516 [RANK 0] Original data shape: (7670, 135, 180, 6)
2025-04-20 19:57:18,139 [RANK 0] Padded data shape: (7674, 137, 182, 6)
…
